…
tps://localhost:8080/"},"id":"ckDVpiKmWP0Z","executionInfo":{"status":"ok","timestamp":1668600961290,"user_tz":-330,"elapsed":845,"user":{"displayName":"Ashwani Dongre","userId":"16269652209672011094"}},"outputId":"daccc7ad-34c7-4891-8fa1-121f12e14588"},"execution_count":13,"outputs":[{"output_type":"stream","name":"stdout","text":["Model: \"sequential\"\n","_________________________________________________________________\n"," Layer (type)                Output Shape              Param #   \n","=================================================================\n"," dense (Dense)               (None, 4096)              413696    \n","                                                                 \n"," reshape (Reshape)           (None, 4, 4, 256)         0         \n","                                                                 \n"," up_sampling2d (UpSampling2D  (None, 8, 8, 256)        0         \n"," )                                                               \n","                                                                 \n"," conv2d (Conv2D)             (None, 8, 8, 256)         590080    \n","                                                                 \n"," batch_normalization (BatchN  (None, 8, 8, 256)        1024      \n"," ormalization)                                                   \n","                                                                 \n"," activation (Activation)     (None, 8, 8, 256)         0         \n","                                                                 \n"," up_sampling2d_1 (UpSampling  (None, 16, 16, 256)      0         \n"," 2D)                                                             \n","                                                                 \n"," conv2d_1 (Conv2D)           (None, 16, 16, 256)       590080    \n","                                                                 \n"," batch_normalization_1 (Batc  (None, 16, 16, 256)      1024      \n"," hNormalization)                                                 \n","                                                                 \n"," activation_1 (Activation)   (None, 16, 16, 256)       0         \n","                                                                 \n"," up_sampling2d_2 (UpSampling  (None, 32, 32, 256)      0         \n"," 2D)                                                             \n","                                                                 \n"," conv2d_2 (Conv2D)           (None, 32, 32, 128)       295040    \n","                                                                 \n"," batch_normalization_2 (Batc  (None, 32, 32, 128)      512       \n"," hNormalization)                                                 \n","                                                                 \n"," activation_2 (Activation)   (None, 32, 32, 128)       0         \n","                                                                 \n"," up_sampling2d_3 (UpSampling  (None, 96, 96, 128)      0         \n"," 2D)                                                             \n","                                                                 \n"," conv2d_3 (Conv2D)           (None, 96, 96, 128)       147584    \n","                                                                 \n"," batch_normalization_3 (Batc  (None, 96, 96, 128)      512       \n"," hNormalization)                                                 \n","                                                                 \n"," activation_3 (Activation)   (None, 96, 96, 128)       0         \n","                                                                 \n"," conv2d_4 (Conv2D)           (None, 96, 96, 3)         3459      \n","                                                                 \n"," activation_4 (Activation)   (None, 96, 96, 3)         0         \n","                                                                 \n","=================================================================\n","Total params: 2,043,011\n","Trainable params: 2,041,475\n","Non-trainable params: 1,536\n","_________________________________________________________________\n","None\n"]}]},{"cell_type":"code","source":["print(discriminator.summary())"],"metadat
…
ps://localhost:8080/"},"id":"SMnqm2HfWUS-","executionInfo":{"status":"ok","timestamp":1668600993923,"user_tz":-330,"elapsed":60,"user":{"displayName":"Ashwani Dongre","userId":"16269652209672011094"}},"outputId":"cecff83f-585c-4ffe-c187-258858064c4c"},"execution_count":14,"outputs":[{"output_type":"stream","name":"stdout","text":["Model: \"sequential_1\"\n","_________________________________________________________________\n"," Layer (type)                Output Shape              Param #   \n","=================================================================\n"," conv2d_5 (Conv2D)           (None, 48, 48, 32)        896       \n","                                                                 \n"," leaky_re_lu (LeakyReLU)     (None, 48, 48, 32)        0         \n","                                                                 \n"," dropout (Dropout)           (None, 48, 48, 32)        0         \n","                                                                 \n"," conv2d_6 (Conv2D)           (None, 24, 24, 64)        18496     \n","                                                                 \n"," zero_padding2d (ZeroPadding  (None, 25, 25, 64)       0         \n"," 2D)                                                             \n","                                                                 \n"," batch_normalization_4 (Batc  (None, 25, 25, 64)       256       \n"," hNormalization)                                                 \n","                                                                 \n"," leaky_re_lu_1 (LeakyReLU)   (None, 25, 25, 64)        0         \n","                                                                 \n"," dropout_1 (Dropout)         (None, 25, 25, 64)        0         \n","                                                                 \n"," conv2d_7 (Conv2D)           (None, 13, 13, 128)       73856     \n","                                                                 \n"," batch_normalization_5 (Batc  (None, 13, 13, 128)      512       \n"," hNormalization)                                                 \n","                                                                 \n"," leaky_re_lu_2 (LeakyReLU)   (None, 13, 13, 128)       0         \n","                                                                 \n"," dropout_2 (Dropout)         (None, 13, 13, 128)       0         \n","                                                                 \n"," conv2d_8 (Conv2D)           (None, 13, 13, 256)       295168    \n","                                                                 \n"," batch_normalization_6 (Batc  (None, 13, 13, 256)      1024      \n"," hNormalization)                                                 \n","                                                                 \n"," leaky_re_lu_3 (LeakyReLU)   (None, 13, 13, 256)       0         \n","                                                                 \n"," dropout_3 (Dropout)         (None, 13, 13, 256)       0         \n","                                                                 \n"," conv2d_9 (Conv2D)           (None, 13, 13, 512)       1180160   \n","                                                                 \n"," batch_normalization_7 (Batc  (None, 13, 13, 512)      2048      \n"," hNormalization)                                                 \n","                                                                 \n"," leaky_re_lu_4 (LeakyReLU)   (None, 13, 13, 512)       0         \n","                                                                 \n"," dropout_4 (Dropout)         (None, 13, 13, 512)       0         \n","                                                                 \n"," flatten (Flatten)           (None, 86528)             0         \n","                                                                 \n"," dense_1 (Dense)             (None, 1)                 86529     \n","                                                                 \n","=================================================================\n","Total params: 1,658,945\n","Trainable params: 1,657,025\n","Non-trainable params: 1,920\n","_________________________________________________________________\n","None\n"]}]},{"cell_type":"code","execution_count":null,"metadata":{"colab":{"base_uri":"
…
